model/DQN.pth (torch, 24864 bytes, 6 tensors)

linear1.weight f4 [64, 19]
000000 81 bb 33 3d dc 91 e0 bd d7 85 5e 3e d8 8a 2c 3e
       0.04387999 -0.109653205 0.21730743 0.1684984
000010 97 48 cc 3d 3f 18 04 be 6e 61 3f 3e 34 f2 0c 3e
       0.09974783 -0.12899874 0.1868951 0.13764268
000020 bd d2 50 be 59 32 54 be fe b8 37 bd a9 0a 04 3d
       -0.2039289 -0.20722331 -0.044854157 0.03223673
000030 cf 12 6a 3e 6b b0 71 3d 04 12 3b bc 46 c4 3f be
       0.22858737 0.059006136 -0.0114178695 -0.18727216
000040 c8 b0 5a b9 c1 57 9d 3d 97 23 fe 3d 30 21 ba bd
       -0.00020855956 0.07682753 0.12409132 -0.09088361
000050 c0 25 69 be 2e fe 44 be fa 9c 35 bd 25 60 2e 3d
       -0.22768307 -0.19237587 -0.044339158 0.04257216
000060 3a db 01 3d 6f 3a 2c 3d 28 c7 26 be 37 4c 48 be
       0.03170321 0.042047914 -0.1628691 -0.19560324
000070 c2 de a6 bc ec 6a b1 3c 7a 77 e0 bc 45 b4 d2 bd
       -0.020369891 0.02165743 -0.02740072 -0.1028829
000080 f6 a2 86 bc 40 06 9f bc 4d 57 51 3e 19 d3 47 3e
       -0.016435128 -0.01941216 0.20443459 0.19514121
000090 3d aa 21 be fd 8d 6a 3e f7 22 69 be 4b 62 e2 bd
       -0.15787597 0.22905727 -0.22767244 -0.11053904
0000a0 2f 25 1f be 7d 49 66 be a2 e7 bb 3d 98 6b a4 3b
       -0.15541528 -0.22488971 0.0917504 0.005017709
0000b0 38 37 9f bd a3 16 02 be ef 2c 91 bd 5b 18 5a 3e
       -0.07774204 -0.12703948 -0.070886485 0.21298353
0000c0 12 1a 9a bd 76 a5 4f 3b 7a 09 2d be e0 a1 a9 3c
       -0.07524504 0.0031684316 -0.16898146 0.02070707
0000d0 cc af 29 be fb eb 10 3e 21 cb 12 3d 18 3e 58 be
       -0.16570967 0.1415252 0.03583825 -0.21117437
0000e0 c4 57 d8 bc aa 53 0c be 94 61 ae 3d 96 3c 18 3e
       -0.026409037 -0.1370379 0.08514705 0.14866862
0000f0 90 9e 3e 3b 3d e4 45 be 3e d3 36 be 6e 78 b4 3d
       0.002908621 -0.19325347 -0.1785402 0.08812033
000100 0f ed cd bd 20 84 13 bc 2b 3f 65 3e f0 f9 30 3c
       -0.10054981 -0.009003669 0.22387378 0.010801777
000110 56 9d 3f 3e 51 6d 04 be e9 62 43 be 47 c7 0d be
       0.18712363 -0.12932326 -0.190807 -0.1384555
000120 16 73 5b be a8 3b 96 3c 74 68 0c 3e 26 42 ad 3c
       -0.2143062 0.018338993 0.1371172 0.021149706
000130 07 83 19 bc b8 9f 6a be 16 80 46 3e ad af 0d be
       -0.009369618 -0.2291249 0.19384798 -0.13836546
000140 64 e0 f6 3d d3 44 c5 3c bc 54 39 be 3b 90 e4 bd
       0.12054518 0.02408067 -0.1809873 -0.11160322
000150 b5 01 64 be be 8c e2 bd 22 32 68 bd 79 e2 90 3d
       -0.22266276 -0.11062001 -0.056688435 0.07074446
000160 b4 d5 2a be 90 5b cd 3d 76 c7 41 3e 97 a1 2d be
       -0.16683084 0.1002723 0.18923745 -0.16956173
000170 c9 d6 f8 bb cb 87 08 be 9b c1 d0 3d ef 16 29 be
       -0.0075939638 -0.13333051 0.10193177 -0.16512655
000180 bb 88 5a 3e b6 00 04 be d5 02 64 3e 9d a5 69 bd
       0.21341221 -0.12890896 0.22266705 -0.057042707
000190 96 fb b7 bd e8 34 48 bd 0d 61 34 3e ba d5 67 be
       -0.08983533 -0.04887858 0.17615147 -0.22640124
0001a0 1d 36 3f 3e b0 f9 0c be b5 3c e7 bd 6b ac 67 3e
       0.18672986 -0.13767123 -0.11290876 0.22624366
0001b0 be 6c 5a 3e 76 3d 9f bd fe c2 2e be 6b bc de 3c
       0.21330544 -0.077753946 -0.17066571 0.027189454
0001c0 6f 0d a3 3d e9 3a 3e 3d c3 f8 d3 3d da 8e 34 be
       0.07961547 0.0464429 0.10350182 -0.17632619
0001d0 49 25 4b 3e a5 fe a7 bd d6 1b e6 3d ac ed 69 be
       0.19838442 -0.082028665 0.11235778 -0.22844571
0001e0 d8 cf 79 3d e4 8d 9a bd 2a 6e d7 bc ec 59 01 be
       0.06098923 -0.07546595 -0.026297648 -0.12631959
0001f0 96 51 1b be 08 4b 35 3e d8 0f 5c be 92 62 15 3c
       -0.15167841 0.17704403 -0.21490419 0.009117739
000200 c6 58 4e be a2 1e 16 be e3 96 2f 3e bf c5 cb bd
       -0.20151052 -0.14660123 0.17147402 -0.099498264
000210 81 20 2a be 5b 36 58 be a3 76 21 3d aa f5 d9 bc
       -0.16613962 -0.21114485 0.03941978 -0.0266064
000220 20 2b 4c be 98 3b 09 3e 38 00 3f 3e da b2 27 bd
       -0.19938326 0.1340164 0.18652427 -0.04094205
000230 ae 8b 19 be db 28 06 3e 7b 6d 67 be 59 db 55 3e
       -0.1499469 0.13101523 -0.22600357 0.20884456
000240 e5 33 55 3e 90 50 13 be ed 0e e6 bd 63 61 20 3e
       0.20820577 -0.14386201 -0.112333156 0.1566215
000250 3d b2 34 be 24 17 70 3d 79 83 58 3d b9 9a 0e be
       -0.17646118 0.05861582 0.052859757 -0.1392621
000260 6f 10 17 be 3c 16 3a 3e f3 79 0b 3d e6 5a a9 bc
       -0.14752363 0.18172544 0.034051847 -0.020673227
000270 c8 18 60 3e 01 63 0e 3d 42 7f 30 3e fb 1d 3f 3e
       0.21884453 0.034762386 0.17236045 0.1866378
000280 59 47 1d bd 5f 33 26 bd 50 80 a3 bd 19 2e 49 3e
       -0.03839812 -0.040576335 -0.07983458 0.19646491
000290 c3 b1 bd bd ea c4 57 3e 71 c7 d1 bd 54 c6 55 3e
       -0.09262421 0.2107121 -0.102431186 0.20876437
0002a0 7e c0 3d 3e 29 bc 56 3e c5 1d 35 be 5f 5b 2b bd
       0.18530461 0.20970215 -0.17687137 -0.041835185
0002b0 96 f2 5d be 4e ad 8f 3d 98 9e 16 be 42 99 9f bd
       -0.2167457 0.07015477 -0.14708936 -0.077929035
0002c0 6b 57 24 be 36 6a 48 be 43 cd 52 3d f2 d5 c7 bd
       -0.16048972 -0.19571766 0.051465284 -0.09757604
0002d0 6b 4c 64 be cf 8b a5 3d 02 99 57 3e 45 f5 38 bd
       -0.22294776 0.08083307 0.21054462 -0.045155782
0002e0 50 f6 3d 3e 35 db bd bd fe 33 01 be f9 44 b7 bd
       0.18550992 -0.09270326 -0.1261749 -0.08948702
0002f0 03 a0 3d be e7 0b c4 3d 7d 7f c1 3d 6d fd d2 3d
       -0.18518071 0.09572583 0.094481446 0.103022434
000300 2f 90 4d 3c cc 29 5a 3d fc 9e 33 be 7e af 60 3e
       0.012546583 0.053262517 -0.17541116 0.21941945
000310 98 41 57 be 0c cc 3a bd b4 64 ac bd 62 2a cb 3b
       -0.21021116 -0.04560475 -0.08417645 0.006200121
000320 18 e2 c1 3c 69 c9 de 3d 48 4e b1 bd e3 d9 22 be
       0.02366738 0.1087826 -0.08657509 -0.1590343
000330 be 03 c7 3d 1c 00 57 be 23 2b 40 be f9 04 5f 3d
       0.09717511 -0.20996135 -0.18766455 0.0544481
000340 e2 f9 5b 3e 0a b3 3c 3c 74 65 26 3c 69 e3 46 3d
       0.21482041 0.011517296 0.010156024 0.04855672
000350 cd 0b 69 be 8b 25 c8 bd 12 9c e0 bc a6 d3 f2 3d
       -0.22758408 -0.09772786 -0.02741817 0.11856775
000360 e7 af 04 3e 5e dd 25 3e ce 78 ac 3d e1 87 96 3b
       0.12957726 0.16197726 0.08421479 0.0045938347
000370 cc aa c9 3d 96 ca 42 3e 4e 7b 78 3d e8 b6 37 be
       0.0984703 0.19022593 0.060664468 -0.17940867
000380 12 e2 41 be 75 73 61 3e 09 4e 06 be 1b 20 7e bd
       -0.18933895 0.220167 -0.13115706 -0.062042337
000390 a7 84 26 be 61 cb 4b be 52 6f 36 bd 06 8b f2 3d
       -0.1626154 -0.19901802 -0.044539757 0.11842923
0003a0 6c d2 fb bc 31 b1 65 be 72 9c c8 3d 2c 8f 04 be
       -0.030739985 -0.22430874 0.097954646 -0.1294524
0003b0 f4 b4 62 be ee d0 53 be 54 9f f1 3d 43 d2 6a 3d
       -0.2213934 -0.20685169 0.117979676 0.057329427
0003c0 db 53 44 be e0 30 62 3d d4 dc 94 bd 64 39 63 3e
       -0.19172613 0.055222392 -0.07268682 0.22189862
0003d0 dd 86 cf bd c9 fa 65 3e b7 cc 56 3e 82 42 e5 bb
       -0.10133145 0.22458948 0.2097653 -0.0069964537
0003e0 20 85 53 bd 55 ba c4 3d 93 6b f7 3d cc 99 69 3b
       -0.05164063 0.096058525 0.12081065 0.0035644649
0003f0 8e 89 47 3e 2b 57 03 3b 67 6e 67 be 4a 21 90 3d
       0.19486067 0.002004097 -0.22600709 0.070375994

linear1.bias f4 [64]
000000 7c 25 6a be 40 ab 51 3c 7d cc 0d be d8 b3 b9 bd
       -0.22865862 0.012797177 -0.13847537 -0.090675056
000010 95 8e 59 bd 05 77 4d 3e 83 d3 05 be 85 d7 97 bd
       -0.053114492 0.20064934 -0.13068967 -0.07414154
000020 68 f3 4e be c3 d5 42 be ac 6a 80 3d da 78 bf bb
       -0.2021004 -0.19026856 0.06270346 -0.005843264
000030 e2 4e 82 38 70 42 2e be 78 e5 cf 3b 39 22 38 3d
       6.213576e-05 -0.17017531 0.0063444935 0.044954512
000040 61 3e bf 3d 4a 0f b7 bd 59 93 96 3a 27 b9 4e be
       0.0933807 -0.08938463 0.0011488005 -0.20187818
000050 aa 70 63 3e dc d4 2e bd 90 f7 18 be 81 7f 08 be
       0.22210947 -0.042683467 -0.14938188 -0.13329889
000060 2e b0 3a be f4 6c a5 bd 6d 5d 60 be ed a2 05 3e
       -0.1823127 -0.08077422 -0.21910639 0.13050433
000070 5b ca 07 3e 26 d1 12 bd f2 46 0e 3e b7 ef 5c 3e
       0.13260786 -0.03584399 0.13894251 0.21575819
000080 9f 5d 53 3e 44 c8 5a bd 4b e2 04 3e b4 9d ba bc
       0.20641182 -0.053413644 0.12976949 -0.022780277
000090 56 57 da 3d 43 c9 d1 bd 13 57 92 3c 68 10 87 3d
       0.10661189 -0.10243466 0.017863786 0.06594926
0000a0 e9 61 81 bd aa cc 4b be 44 e0 10 b9 fc 87 c8 3d
       -0.06317503 -0.19902292 -0.00013816456 0.09791562
0000b0 9c 0b 4b 3e 5a bf 97 bd 5a 08 17 3e ec e4 50 be
       0.19828647 -0.07409544 0.1474928 -0.20399827
0000c0 cf d3 db 3d c7 d2 c3 3b d2 f1 0a bd 64 50 3b bd
       0.10733759 0.0059760544 -0.033922024 -0.045730963
0000d0 3c 59 1a be 0d f3 00 3e bc f1 1e 3e c5 90 32 be
       -0.15073103 0.12592717 0.15521902 -0.17438038
0000e0 ad 54 ce 39 35 50 4c 3e 95 f0 61 3e c3 e9 ff bd
       0.0003935447 0.19952472 0.22064431 -0.124957584
0000f0 ca b5 99 3c b8 f3 a9 3c 96 76 4a be 89 5d 29 be
       0.018763442 0.020746097 -0.197718 -0.16539587

linear2.weight f4 [64, 64]
000000 e6 96 d8 bd 9c b8 4b bd df a8 a5 bd f8 e8 e2 bc
       -0.105756566 -0.049736604 -0.0808885 -0.027698979
000010 14 aa fe 3d e0 d2 ea 3c fe c3 24 bd 24 d4 e4 bc
       0.124347836 0.028665006 -0.040225975 -0.027933188
000020 c8 5f 4a bc 40 08 d3 bb e4 02 d8 bd c8 39 cf 3c
       -0.012351938 -0.0064401925 -0.10547426 0.025296107
000030 ec 52 28 3d 86 6c 7a bd d4 d6 ae bd 5c fc 14 bd
       0.041094705 -0.061138652 -0.08537069 -0.03637348
000040 50 7e 6c 3d 01 0e dd bd 9e 86 df 3d ac 13 e0 bd
       0.05773765 -0.10793687 0.10914348 -0.10941252
000050 20 20 08 3c 60 87 dc 3d 50 7e 85 bc 1c e0 c8 bc
       0.00830844 0.10768008 -0.016295582 -0.024520926
000060 e0 46 b3 3b 48 25 93 bc e8 e2 60 3d 14 29 27 3d
       0.0054710954 -0.017962113 0.054903895 0.04081066
000070 4c 43 be 3d 59 67 c9 bd 24 fb 4d 3d f0 01 e8 bd
       0.092901796 -0.09834165 0.050288334 -0.113284945
000080 40 0f ee ba c4 9c 20 3d 04 a5 ee bc f8 e7 dc 3d
       -0.0018162504 0.039212003 -0.02913142 0.10786432
000090 e6 f7 c4 3d a0 c8 f4 3c e4 26 ae bd 26 7f 17 bd
       0.096175954 0.029880822 -0.085035115 -0.036986493
0000a0 dc 81 6e 3d 64 19 97 bd f0 29 d0 bc 88 e6 bd bc
       0.058229312 -0.0737789 -0.025410622 -0.023181215
0000b0 c0 fe 47 3b a8 e7 f5 3c a8 6d 1a 3d 90 f4 21 bd
       0.0030516833 0.030017689 0.037702233 -0.039539874
0000c0 14 0c a3 3d cc 24 45 bd 20 d0 2a 3d 00 9a 02 3d
       0.07961288 -0.048130795 0.04170239 0.031885147
0000d0 a6 a1 65 bd be e6 a2 3d 44 8e 56 bd c4 02 c5 bc
       -0.056062363 0.07954167 -0.05238177 -0.02404917
0000e0 00 82 8a 3a 4e 44 cf 3d 3e fd 97 bd 02 79 74 bd
       0.0010567307 0.1012045 -0.07421349 -0.059685715
0000f0 3c 63 ca bd e0 19 05 bc c3 19 c3 bd 3e 31 b3 3d
       -0.09882209 -0.008123845 -0.09526398 0.087496266
000100 e6 92 e2 3d 60 bc 21 3d 8c 21 ae bd 60 c5 85 3d
       0.11063175 0.03948629 -0.08502492 0.06531787
000110 d0 2a 55 3d 30 53 47 3d 62 3e 9d 3d 08 39 c6 3c
       0.052042782 0.04866332 0.07677914 0.024197116
000120 dc 85 39 3d f2 73 53 bd ec a0 ba bc 20 5c bd 3b
       0.045293674 -0.051624246 -0.022781812 0.0057788044
000130 2a 8a 2c bd f4 8e e0 3d 48 5e df bc 1f a1 97 bd
       -0.04212395 0.10964766 -0.027266636 -0.07403778
000140 2c 69 35 3d f0 7c a2 bb 5a dc 81 bd 32 77 e6 bd
       0.044289753 -0.0049587414 -0.06340857 -0.112532035
000150 aa 4d a7 bd 0a 07 be bd bc 24 94 3d 70 16 6b 3d
       -0.0816911 -0.09278686 0.07233569 0.057394445
000160 b2 ba cb bd b6 ba e6 3d c4 01 86 3d 84 01 80 bd
       -0.09947719 0.11266081 0.065433055 -0.06250289
000170 28 f7 5f 3d a2 de d4 3d e9 44 d7 bd 48 95 3b bd
       0.054679066 0.10394026 -0.105111904 -0.045796663
000180 62 c9 bb 3d 90 b9 a5 bc 20 12 70 3c 98 13 8e bd
       0.0916927 -0.020230085 0.014652759 -0.06937331
000190 78 c8 54 bc 96 b5 62 bd 1c 2b 06 3d 9b 73 db bd
       -0.012987249 -0.055348955 0.032755956 -0.10715409
0001a0 06 08 dd bd cc 69 71 3d c8 8e 81 bd 64 fa 61 bd
       -0.10792546 0.058938786 -0.063260615 -0.05517043
0001b0 6c 06 85 bc fc ce a8 3d e8 3e 13 3d d4 e1 6a 3d
       -0.016238414 0.08242604 0.035948664 0.057344273
0001c0 d4 22 cf bd 94 f2 62 bd 8e a4 b9 bd ea 34 43 bd
       -0.10114065 -0.05540712 -0.090645894 -0.047657885
0001d0 ea e6 f6 3d e0 21 84 3c 04 da af 3d 2c 68 90 bd
       0.12055762 0.016129434 0.08586505 -0.07051119
0001e0 60 5a e5 bd 08 3f 4b bc 78 74 65 bc 54 df 81 3d
       -0.11198878 -0.012405165 -0.014004819 0.063414246
0001f0 b8 b0 43 3d b8 44 a0 3c 92 da e9 bd 67 5e d5 bd
       0.047775954 0.019564018 -0.11418642 -0.104183964
000200 38 8d f2 3d fc 01 d5 3d c4 58 e0 bc 50 97 da bc
       0.118433416 0.10400769 -0.027386077 -0.02668348
000210 70 30 1a 3d 04 cb d8 3d 44 16 e1 bc 54 62 5a bd
       0.03764385 0.10585597 -0.027476437 -0.05331643
000220 40 fe df 3b a0 87 77 bd e0 58 68 3d 80 c6 20 3c
       0.006835729 -0.060432076 0.056725383 0.009812951
000230 9a 3f 9e 3d bd c7 e6 bd 1e 16 bc 3d a5 1b e3 bd
       0.07726975 -0.11268566 0.09183906 -0.11089257
000240 cc 10 85 3d 7c c9 5c 3d 76 5f db bd 0c 68 ba bd
       0.064973444 0.053903088 -0.10711567 -0.091018766
000250 fc 01 97 3d a1 ac ee bd 7c 4e 9c bd 1d f2 b5 bd
       0.07373425 -0.1165402 -0.07632157 -0.0888407
000260 12 e1 d2 3d 4a f9 b8 3d fe d7 dc bd 14 56 90 3d
       0.10296835 0.09031923 -0.10783385 0.07047668
000270 b2 f1 ea bd c0 52 c9 bd b0 f4 61 bc cc a7 09 3d
       -0.11471881 -0.098302364 -0.013791248 0.03360729
000280 50 9a 1f 3d 08 8b 9e 3c 6c 7d 50 3d 52 8b bb bd
       0.038965523 0.019353405 0.05090086 -0.091574326
000290 4b 14 da bd 7e 40 e1 3d 09 d0 fd bd d6 07 30 bd
       -0.10648402 0.10998629 -0.12393195 -0.042976223
0002a0 38 7b de 3c 4b 76 8e bd 3c 95 89 bd 52 e9 84 bd
       0.027158365 -0.06956156 -0.06717917 -0.06489815
0002b0 76 eb 8b 3d b5 c9 b6 bd 72 61 80 3d 44 d9 41 bd
       0.0683202 -0.08925191 0.06268586 -0.04732634
0002c0 20 16 04 3d 80 3a 3a 3c cc 56 e0 bc d8 bb 4b bd
       0.032247663 0.011366487 -0.027385138 -0.04973969
0002d0 74 54 90 3d 4c 5c 3b 3d 3c c8 de 3d 66 67 88 3d
       0.07047358 0.045742318 0.108780354 0.06660347
0002e0 ac 4e d0 3d 80 ff 10 3b ce 6f a2 3d d8 1c db 3c
       0.101712555 0.0022124946 0.07931481 0.026747152
0002f0 78 d1 4c 3d 54 c5 a8 bc 6b 30 bd bd 40 b0 26 bd
       0.050004452 -0.020601906 -0.092377506 -0.04069543
000300 08 32 7e bc ac 0a 0a 3d 28 72 67 bd fa ba d3 3d
       -0.015514858 0.033701584 -0.056505352 0.10338397
000310 ac e1 12 3d ac 5b ba 3d 4c 4e 6c bd de 50 92 3d
       0.03585975 0.09099516 -0.057691857 0.071443304
000320 56 aa f9 3d c0 ef ae bc 38 cd d7 3c fa c3 a0 3d
       0.12190692 -0.021354556 0.026342973 0.078498796
000330 fc 1e d3 3d ba 3c ce bd 30 aa 11 3c 20 23 9b 3c
       0.10308644 -0.100701764 0.0088906735 0.018937647
000340 00 2f 28 3a 70 1c 7b bc 48 35 9d bd d2 80 ad 3d
       0.0006415695 -0.015326604 -0.07676178 0.08471836
000350 f6 6c be bd 34 4d 05 3d 20 f5 f5 bd 06 29 59 bd
       -0.092981264 0.03254433 -0.120096445 -0.05301764
000360 10 66 7a 3d c5 50 df bd a2 62 ac bd 15 06 e8 bd
       0.06113249 -0.109040774 -0.0841725 -0.11329285
000370 aa 0f d1 3d 28 1a cc 3d 30 d4 04 bd 1f c8 c9 bd
       0.10208066 0.099659264 -0.03242892 -0.09852623
000380 a6 73 9b bd cc eb 58 3d 18 ff 09 bd 45 a8 d0 bd
       -0.075904176 0.05295925 -0.033690542 -0.10188345
000390 18 10 de 3d f8 08 09 bc e5 f0 e5 bd 9c c6 72 bd
       0.108429134 -0.008363955 -0.112275876 -0.05927144
0003a0 5e 11 e9 3d 62 13 88 3d f0 f8 15 bd 78 db 89 bd
       0.11380266 0.06644322 -0.03661436 -0.067313135
0003b0 e0 30 5e bc dd b1 d6 bd f0 37 8d 3c 70 e3 84 bb
       -0.013561457 -0.104831435 0.017238587 -0.004055433
0003c0 c4 e4 51 bd 40 9a 23 3c f0 6a 51 3d 98 58 a1 bd
       -0.05124356 0.009985507 0.051127374 -0.07878226
0003d0 5e df 59 bd 80 e8 48 ba 48 28 c7 bc cd b6 96 bd
       -0.053191535 -0.000766404 -0.0243112 -0.07359085
0003e0 44 f6 f2 3d ea eb 60 bd b0 c5 7b 3d c6 6e ac 3d
       0.11863378 -0.054912485 0.061467826 0.08419566
0003f0 00 4e a4 3a e0 a5 64 bc 30 e9 d8 bc 16 00 4e bd
       0.0012535453 -0.013955563 -0.02647838 -0.05029305

linear2.bias f4 [64]
000000 92 6c d6 3d 30 76 56 bc ea a0 96 3d 38 44 18 3d
       0.10469927 -0.0130897015 0.07354911 0.037174433
000010 5e 94 ce 3d d0 1e 93 3c 40 8b d8 3c 98 c8 37 bd
       0.100868925 0.017959028 0.026433587 -0.044869035
000020 a1 34 9e bd 64 48 af bd 34 47 cd bd e8 01 86 bd
       -0.07724882 -0.08558729 -0.100233465 -0.06543332
000030 70 c1 4d bd 00 65 9e 3d 2c 73 38 3d ae 70 b0 3d
       -0.050233305 0.07734108 0.04503171 0.08615242
000040 70 84 16 bd fe e2 a9 3d b4 83 ee 3d 7c 9d 4c bd
       -0.036747396 0.082952484 0.11646214 -0.049954876
000050 be 59 b7 bd dc d9 ab bc 12 f1 45 bd 00 0e 05 ba
       -0.08952664 -0.020977907 -0.048325606 -0.00050756335
000060 f4 91 97 bc d6 eb fc bd 70 52 f0 3c 7a e1 f9 bd
       -0.018502213 -0.1234967 0.029336184 -0.12201209
000070 20 2b 79 bc 89 3c d1 bd d7 e4 f7 bd a7 92 a8 bd
       -0.015208036 -0.10216624 -0.121041946 -0.08231097
000080 b8 3e b5 3d 07 18 d6 bd 40 1b 36 bb 4a 20 cd 3d
       0.08849853 -0.104538016 -0.0027787238 0.10015924
000090 7c ac c3 3d 80 db 2b 3b 00 32 a8 bb d4 4c f2 bd
       0.09554383 0.0026223361 -0.0051329136 -0.1183106
0000a0 28 e8 8e 3c dc 78 e2 bc 70 a7 e3 3d e0 e0 05 3c
       0.017444685 -0.02764552 0.111159205 0.00817129
0000b0 30 df 17 3d 97 8b d3 bd 92 fb ae bd 68 1b 94 3d
       0.037078083 -0.10329359 -0.08544077 0.0723179
0000c0 67 f9 93 bd 0c 54 0d 3d 64 52 e8 3d 4c ef bf bd
       -0.07225304 0.03450398 0.1134384 -0.09371814
0000d0 04 21 7a bd 46 12 6f bd 10 99 30 3c 10 57 bd 3d
       -0.061066642 -0.058367036 0.01077868 0.092451215
0000e0 66 31 75 bd c0 1a dc bc 8e ed 09 bd 16 9c da 3d
       -0.059861563 -0.026868224 -0.033673815 0.10674302
0000f0 fd 03 e3 bd e3 ba a8 bd a8 8a 85 3c 72 4b 95 3d
       -0.11084745 -0.08238771 0.016301468 0.07289781

output.weight f4 [3, 64]
000000 d0 2d ca bd 48 9e fb 3c f0 14 d0 3d b4 53 e7 3d
       -0.09872019 0.030715123 0.101602435 0.11295262
000010 90 10 93 3d a4 e5 2c 3d fe fb 78 bd 96 3e bb bd
       0.071808934 0.04221119 -0.060787193 -0.09142797
000020 de e6 ac bd 3a 12 b1 3d d4 15 2d bd 40 b2 75 3b
       -0.08442472 0.086460546 -0.042257145 0.0037490278
000030 c8 ce 7a 3d 0e b6 96 3d 7e 75 cf 3d c8 83 03 bd
       0.06123236 0.07358943 0.10129832 -0.0321081
000040 da a6 b4 bd ea 44 15 bd c0 ca 09 3c 04 6d 83 bd
       -0.08820887 -0.036442675 0.008410156 -0.064172775
000050 60 3b de 3d fa 15 fd 3d 84 f2 e5 bd f8 6d 07 bd
       0.10851169 0.12357707 -0.11227897 -0.03306386
000060 40 50 56 3b 80 81 2b 3b 40 d0 85 3b 80 da e2 3d
       0.0032701641 0.0026169717 0.004083663 0.11076832
000070 5c 77 3a 3d 94 24 e2 3d b8 f9 d2 bd 6e 8b 97 3d
       0.045523986 0.11042133 -0.10301536 0.07399641
000080 00 95 d8 3d 82 47 99 3d 1c 09 93 bd bc e4 95 3d
       0.105752945 0.07484342 -0.07179472 0.07319018
000090 00 7a a4 3a 92 7f 86 3d 1d 2c 9a bd 36 34 fc bd
       0.0012548566 0.06567301 -0.07527945 -0.12314646
0000a0 00 d0 45 3d e6 e5 82 3d a7 f6 c6 bd 4a 4e 88 bd
       0.048294067 0.06391506 -0.09715014 -0.066555575
0000b0 68 c5 78 3d ba 41 7a bd 08 f5 1f bd 7e dc c9 3d
       0.060735136 -0.061097838 -0.03905204 0.09856509
0000c0 60 e7 0f 3d b8 9b 9a 3d 08 74 b3 3c e8 a7 42 bd
       0.035132766 0.07549232 0.021905914 -0.04752341
0000d0 c8 45 eb bd 3e 0f e1 3d 8e fc d4 3d 60 59 fa bc
       -0.11487919 0.10989235 0.103997335 -0.030560195
0000e0 1c 5e 9c bd 2e 80 df 3d 04 3d 12 3d 00 15 fb bc
       -0.076351374 0.1091312 0.03570272 -0.030649662
0000f0 04 2a 6b 3d c0 1a e4 bd 66 4c ea bd 4a 74 fa 3d
       0.057413116 -0.11137915 -0.11440353 0.12229212
000100 f2 bf 79 bd 7c 81 81 3d db 6b e9 bd fc 7f ef 3d
       -0.06097407 0.06323525 -0.11397525 0.11694333
000110 c6 7b 76 bd 00 78 82 ba f6 8b af 3d 02 97 dc 3d
       -0.060176633 -0.0009953976 0.08571617 0.1077099
000120 c7 d9 eb bd 5e 71 e9 3d 1a a2 f3 3d c5 1c cf bd
       -0.11516147 0.11398576 0.11896153 -0.10112909
000130 32 f1 17 bd 44 f9 df 3d ec fb 9a bc 62 77 99 bd
       -0.037095256 0.109362155 -0.018918954 -0.074934736
000140 5d 65 bd bd c0 a1 af bc c4 28 5e 3d 74 1c f8 bc
       -0.09247849 -0.021439433 0.054238096 -0.030287005
000150 bc fd a3 bd 34 ff 81 bd b4 a1 5a 3d b4 07 cf 3d
       -0.0800738 -0.06347504 0.05337687 0.10108891
000160 d7 cf e2 bd 44 a3 93 bc e2 64 65 bd 2c 68 7c 3d
       -0.110747986 -0.018022187 -0.056004412 0.061622784
000170 40 d1 39 bb b4 ff 97 bc ed f0 ce bd e7 65 e1 bd
       -0.0028353482 -0.018554546 -0.10104547 -0.110057645
000180 fa 5b 4b bd 8e 91 f2 bd 35 98 e3 bd ea 76 e0 bd
       -0.049648263 -0.118441686 -0.111130156 -0.10960181
000190 28 a8 ac bd e0 e0 b4 3b 70 56 88 3d 8c a4 49 3d
       -0.08430511 0.0055199713 0.06657112 0.04922919
0001a0 70 c5 78 3d f0 da 1d 3c c0 81 8a bc 2a fc 70 bd
       0.060735166 0.009634718 -0.016907573 -0.058834232
0001b0 9c 6f b8 3d 04 b0 bb 3d bc 96 29 bd d0 c3 aa bc
       0.09005663 0.09164432 -0.041403517 -0.020845324
0001c0 70 bf c7 3c b0 19 2b 3d f8 70 27 3d 20 d5 87 bd
       0.024383277 0.041772544 0.04087922 -0.06632447
0001d0 f6 c4 e1 3d f6 2f e1 3d 32 4d c3 3d c8 0a 70 3d
       0.110238954 0.10995476 0.09536208 0.05860403
0001e0 c2 7e 90 3d 1e 8d 8a 3d 98 27 bd 3d dc 23 c8 3d
       0.07055427 0.06765197 0.092360675 0.09772465
0001f0 16 2b fc 3d a0 02 c7 3d 24 ef bd bd e0 29 01 bb
       0.123129055 0.097172976 -0.09274128 -0.0019708797
000200 7e b7 af bd d4 9b af bd 5a 9c ec 3d de e5 b8 3d
       -0.0857992 -0.08574644 0.11553259 0.09028219
000210 40 55 ee 3d 48 b1 89 3d c6 c1 d1 bd 84 4f b9 3d
       0.11637354 0.06723267 -0.102420375 0.090483695
000220 20 4c cc 3c e6 c7 f1 3d 10 a4 0a 3c 43 ad d7 bd
       0.024938643 0.11805706 0.008461967 -0.10531094
000230 13 19 e0 bd f8 f9 8b 3d 50 d3 08 3c d0 38 4d bc
       -0.109422825 0.06834787 0.008351162 -0.012525752
000240 38 13 80 3c 34 cb b8 3d 38 5f 39 3d 56 98 db 3d
       0.015634164 0.09023133 0.045256823 0.10722415
000250 80 24 c2 3a c0 50 61 bd c2 98 86 bd 1a 6a ff 3d
       0.0014811903 -0.05500865 -0.06572105 0.12471409
000260 40 77 eb bd d5 2d d1 bd 1c fd 79 3d 2a fa 9a 3d
       -0.114973545 -0.1021382 0.0610324 0.07567246
000270 14 3a ae 3d 30 89 91 bd b2 df 63 bd e0 7f 17 3c
       0.08507171 -0.071062446 -0.055633254 0.009246796
000280 08 92 8b 3d 38 16 fd bc 19 c8 a5 bd d0 d1 e6 bc
       0.068149626 -0.030894384 -0.08094806 -0.028176218
000290 40 a0 c2 3c 12 e9 8b 3d d0 b3 bb bb 30 e3 ca bc
       0.023758054 0.06831564 -0.0057282224 -0.024766535
0002a0 64 fc dc 3d 7e ae ca 3d 96 bb 8e bd 32 79 b2 3d
       0.10790327 0.09896563 -0.06969373 0.087145224
0002b0 36 fe ad 3d 5e a2 fe 3d 9c f1 2a 3d 9e 38 32 bd
       0.084957525 0.12433313 0.041734323 -0.043511026
0002c0 c8 f8 1f 3d 0a 8d a2 3d e0 ac 8b 3c 40 50 b8 3d
       0.039055616 0.07937057 0.017050207 0.089996815
0002d0 12 ab eb 3d f0 50 39 3c 00 b7 95 b9 cc 32 d2 bd
       0.115072384 0.011310801 -0.0002855584 -0.10263595
0002e0 11 29 d3 bd 88 66 f5 3c 48 bc f7 bd 1c 89 72 3d
       -0.10310567 0.029956117 -0.12096459 0.05921279
0002f0 e8 8f b1 3c 66 49 9a 3d aa b2 d3 bd f0 ec 3f 3c
       0.021675065 0.07533531 -0.10336812 0.011714205

output.bias f4 [3]
000000 f2 85 a0 3d 40 a5 25 3c 85 83 f0 bd
       0.07838048 0.010110199 -0.11743835
